training/checkpoints/finetuned.pt (torch, 831725 bytes, 5 tensors)

fc1.weight f4 [256, 776]
000000 51 d0 bc 3b ab 58 09 bd 60 88 be bc f7 2e cd 3a
       0.005762138 -0.033531826 -0.023258388 0.0015654255
000010 b8 b7 b9 3c 64 c6 f7 bc 51 68 da 3c 6e df fd 3c
       0.022670612 -0.030245967 0.02666107 0.030990329
000020 31 ba 39 bc 10 fa d8 bc ee a9 83 bc 42 9b ab 3c
       -0.011335895 -0.026486427 -0.01607224 0.020948056
000030 14 13 c6 bc 01 ae df 3c 25 c0 ac bc cc 47 8f bc
       -0.024179019 0.027304651 -0.021087715 -0.01749029
000040 b1 25 11 3c 26 ae 22 bc 2f 05 c1 3c 80 6c 18 bd
       0.008859084 -0.009929216 0.023562042 -0.03721285
000050 0e 84 26 bc a7 8b 69 3c 72 38 16 3d ca 81 a3 3a
       -0.01016332 0.014254487 0.036674924 0.0012474593
000060 0c 5d 7c ba f2 f3 7d 3c 62 39 c0 39 46 17 f7 bc
       -0.0009626902 0.015500056 0.00036663847 -0.030162465
000070 78 f0 4e 3c 9d b7 23 3b 90 97 d8 bb 81 4b ef bc
       0.012630574 0.0024981268 -0.0066098645 -0.029210808
000080 b5 45 f3 3c bd 66 00 3d 26 e7 d0 3c d0 aa 1a bc
       0.029696325 0.03134798 0.025500845 -0.009440139
000090 3c 9d b1 3c e7 4c 00 3d 8e 76 26 bd 8b 23 06 3d
       0.02168142 0.03132334 -0.040640406 0.03274874
0000a0 d3 a5 02 3c 82 5c 22 bc a1 79 f7 bc 02 b0 3d bc
       0.007974106 -0.009909751 -0.030209364 -0.011577608
0000b0 a1 31 e9 bc 34 45 87 bc 23 4a ab bc cf 28 79 3c
       -0.028466048 -0.01651249 -0.020909375 0.015207483
0000c0 30 21 63 bc c4 74 b7 bc 67 11 96 bc da c7 f7 3b
       -0.013862893 -0.022394545 -0.018318845 0.007561666
0000d0 d6 b2 ad bc 1a a3 e2 3c 97 b6 33 3d 7a cc 10 3d
       -0.02120344 0.027665664 0.043875303 0.035351254
0000e0 5f 05 0c bd d1 21 8d bc ae 9d 09 bd 06 f0 84 3c
       -0.03418481 -0.017228039 -0.03359764 0.016227733
0000f0 30 04 67 bc 75 b7 9b 3c 78 e3 c4 bc 02 ff a8 3c
       -0.0141001195 0.019008378 -0.024034247 0.02062941
000100 be a6 79 bc 30 c1 f8 3c 41 52 be 3c e1 64 9a bc
       -0.015237508 0.030365556 0.023232581 -0.018846931
000110 8e 93 65 bb 3b 44 ab 3b 35 5a 96 bb cc 82 d6 bc
       -0.0035030576 0.0052266396 -0.0045883902 -0.026185416
000120 15 9b 92 bc 31 28 ed bc d0 98 e5 bc 48 17 9b bb
       -0.017896215 -0.028949829 -0.028026968 -0.004733
000130 41 94 85 bc c6 8b 15 bb b6 b7 a8 bc fd 7c 0f bd
       -0.016306045 -0.0022818907 -0.020595413 -0.035031307
000140 8f 2c 16 bd af ae bf bc c0 01 89 3c 20 cc 27 bc
       -0.036663588 -0.023398725 0.016724467 -0.010241538
000150 22 fa f3 bc 4b ce fe bb 1f d9 dc 3c 90 eb 5c ba
       -0.029782359 -0.007776057 0.026959 -0.00084274355
000160 07 f7 6a 3c 8f ef ea bb 32 00 06 bd 5d 31 c2 3c
       0.0143411225 -0.007169671 -0.03271503 0.023705179
000170 d6 b2 da bc 37 67 7f 3c 51 1d 6f 3c da 81 eb bc
       -0.026696604 0.015588573 0.014594392 -0.028748441
000180 f2 6d cb bc 5e 9e 1f 3d 5d 85 fe bb ae 8c 62 bb
       -0.0248327 0.03896939 -0.007767363 -0.0034568715
000190 04 5d 86 bc 8a 40 20 3c 13 7d e8 bc 6f d8 cd 3c
       -0.016401775 0.009781012 -0.028379953 0.025127618
0001a0 57 6f 00 bd 5d 81 e9 3b 82 32 bc bc 2d d9 44 bc
       -0.031356182 0.007126017 -0.022973303 -0.012014669
0001b0 1b 7b bd b9 ea 5e 1e 3d 4f c9 4f 3c 1f 2a ca 3b
       -0.0003614061 0.038664736 0.012682273 0.006169572
0001c0 fd ad 41 3c 72 50 88 3c 13 de c5 3c a5 13 82 3c
       0.011821267 0.016639922 0.024153745 0.015878508
0001d0 96 fe 0a 3d 22 5c 17 3d 62 fa 44 bc bc 96 0b 3c
       0.0339342 0.0369531 -0.012022587 0.008519825
0001e0 dd df d1 bc ed 28 b5 3c 74 a0 4f bb 07 99 a6 3c
       -0.025619442 0.022114241 -0.003168133 0.020336641
0001f0 2f ff 05 3d 8b d1 ae bc f3 5d c9 bc 81 ee 62 bc
       0.032714065 -0.021340152 -0.024580931 -0.013850809
000200 51 77 0b bc c0 2b 50 ba 3e 2b 46 bc 88 28 d5 3b
       -0.008512334 -0.00079410896 -0.012095271 0.006505076
000210 9d d6 8e bc ee 02 dc bc a9 e6 a5 bc 8f 8d d0 3b
       -0.01743632 -0.026856866 -0.020251589 0.0063645313
000220 5b c2 2f bd 3f 20 04 bc e3 8a 08 3d 0f 96 87 bc
       -0.04290996 -0.008064329 0.033335578 -0.016551046
000230 37 21 87 3c 2a 54 b5 bb 47 26 27 3c 93 87 ae bb
       0.01649533 -0.005533715 0.010201997 -0.0053262203
000240 a9 be 18 3d 85 89 00 bc 01 4e 3a 3d 48 a3 ca bb
       0.037291203 -0.007845287 0.045484547 -0.0061840154
000250 b8 01 6d ba 37 61 a0 bc e2 35 da bb 6d 84 c6 3c
       -0.00090410886 -0.019577606 -0.0066592554 0.024233067
000260 69 d2 00 3a 83 d5 89 3c 5a 5b dc 3c 29 85 d4 3a
       0.0004914166 0.016825443 0.026899029 0.0016214001
000270 8d ae 24 bd 45 53 70 bc 6a 32 78 3c da 3f 43 bc
       -0.040205527 -0.0146682905 0.015148738 -0.011917079
000280 db 95 81 bc 6c 5d 96 3b 32 28 90 38 eb 84 4e bc
       -0.015818527 0.0045887735 6.873942e-05 -0.012604932
000290 97 40 b0 ba 05 37 8c 3c ca 2e 8b bc eb 70 a7 bc
       -0.0013446984 0.01711608 -0.016990084 -0.020439586
0002a0 57 96 60 bb cf 8e 43 3c 46 a8 18 bd fa c8 fb bc
       -0.0034269297 0.011935904 -0.037269853 -0.030735482
0002b0 03 b6 ec 3a 7a 3b c5 bc 3d 31 f0 bb 82 6f 11 bc
       0.0018059615 -0.024076212 -0.0073300884 -0.008876683
0002c0 d0 fe 07 bc 6a be 07 bb b9 ce 07 3d 3c f1 da 3c
       -0.008300498 -0.002071286 0.03315613 0.026726358
0002d0 4e c2 a3 3c 86 75 87 b9 f5 62 f0 bb 47 a5 c8 bc
       0.019990113 -0.00025836768 -0.0073360153 -0.024492873
0002e0 b0 00 07 bd 15 46 f7 ba 8c d0 e0 bc 20 d4 86 ba
       -0.03295964 -0.001886549 -0.027443193 -0.0010286607
0002f0 89 3f 01 bd 13 f9 05 3b e6 c8 9d 3a 70 7e 4d 3b
       -0.031554732 0.002044265 0.0012038022 0.003135588
000300 47 b9 34 bc 25 c8 cd 3c 3c 10 99 3a c3 45 8c bb
       -0.011030502 0.02511985 0.0011677812 -0.004280777
000310 22 ef 37 3c 64 9d 23 3c 58 93 82 bc 00 6a a9 3c
       0.011226447 0.009986255 -0.0159394 0.020680428
000320 3f 2e ff 3b 54 a7 99 3b 98 c2 11 3d 81 74 a8 bc
       0.0077874954 0.0046891365 0.03558597 -0.020563366
000330 c0 3a 00 3c 72 e4 f4 3c 5f 0f 6f bc ce a2 e6 3b
       0.007826507 0.029894087 -0.014591067 0.007038451
000340 87 5e f7 3b dc 36 2f bc e7 e5 0b bd 9b b8 18 bd
       0.0075491103 -0.010694232 -0.0341548 -0.03728543
000350 ed e5 6c 3c 8a 84 b0 3c 31 1c e0 3c e7 70 06 bd
       0.014459115 0.021547575 0.027357193 -0.032822516
000360 a1 12 35 bd 59 77 9d ba ba 19 50 3d 16 3f a4 3c
       -0.04420722 -0.0012013718 0.050805785 0.020049613
000370 22 fc 00 3d 4c 88 0c bb cb 71 63 3c 37 ef 10 3c
       0.031490453 -0.0021443544 0.013882111 0.008846096
000380 d9 0b 06 3d c5 af 2c 3c f1 29 10 3d 4f bd 03 3d
       0.032726143 0.010539954 0.03519625 0.03216296
000390 90 2a 24 3b 86 ce 09 3d 1c cf 38 bc 83 66 57 bc
       0.0025049783 0.03364422 -0.0112798475 -0.013146999
0003a0 20 15 1d 3a 80 af c1 bc 3e b0 33 bc 6d 3e c2 3c
       0.00059922226 -0.023643255 -0.010967312 0.023711408
0003b0 00 ed 72 bc 3d 48 08 3d 34 ff 48 3c 0d 5f 3d 3d
       -0.014827013 0.033272017 0.012267876 0.046233226
0003c0 07 56 0a 3d 9a aa a7 3c 36 d7 f0 3c d2 39 d3 3c
       0.03377345 0.020467091 0.029399496 0.025784407
0003d0 77 f6 0b bd e9 09 b9 3b 3a 42 4a 3d 65 ea 26 3d
       -0.034170594 0.0056469333 0.049379565 0.04075088
0003e0 fb 09 21 3c 42 58 fc 3b 4d 5f f1 bc dc f1 a6 3b
       0.00982904 0.007700951 -0.029464388 0.00509475
0003f0 1d 40 af bc fe 03 79 bc 90 b9 86 3c 11 91 9f bc
       -0.021392876 -0.015198706 0.016445905 -0.019478353

fc1.bias f4 [256]
000000 bb 5d 30 bc 80 10 a6 bc dc ca 02 bd 05 97 79 bc
       -0.010764535 -0.02027154 -0.031931743 -0.01523376
000010 04 de 00 3d 81 74 c9 3c 6c 0f 42 bb 3e 06 9d 3c
       0.03146173 0.024591686 -0.0029611243 0.019168016
000020 18 3a c5 bb cb 28 5b 3c 74 d6 2d 3c 9e a7 fb 3c
       -0.006018888 0.013376425 0.010610212 0.030719575
000030 35 7e f5 3c b0 72 34 3d 02 2c 72 bc e3 3b 42 3d
       0.029967407 0.044054687 -0.014781 0.047420394
000040 ba ef af 3c b5 50 58 bc a1 a2 95 bb 1d 9c 07 3d
       0.021476615 -0.013202836 -0.004566506 0.033107866
000050 c0 60 ae 3c a4 e6 0e 3d 85 77 a7 3c 35 99 2e 3b
       0.021286368 0.034887925 0.020442734 0.0026641611
000060 3b d3 56 3d f5 d7 3d 3c b6 55 a2 bb f3 28 6e bc
       0.05244754 0.011587133 -0.004954065 -0.01453613
000070 db d1 48 3b d0 91 13 bd be 84 70 3d bf fd 12 3d
       0.0030642662 -0.03602773 0.058720343 0.035886522
000080 63 f0 d1 bc 11 60 0c 3d d3 50 e0 3c 13 93 ec 3c
       -0.02562732 0.034271304 0.02738229 0.028878724
000090 c6 2e 73 bc e5 7d cd bc 60 6e bc 3c 0c a5 07 bd
       -0.014842695 -0.025084445 0.02300185 -0.033116385
0000a0 64 c9 82 3c 11 d0 51 bb 28 fa ee bc b4 34 83 bc
       0.015965171 -0.0032014886 -0.029172018 -0.016016342
0000b0 b7 f4 98 3c 57 e2 cc 3b 1b 8e 95 3c 2c 90 02 3c
       0.018671377 0.0062525677 0.018256238 0.007968944
0000c0 d2 44 7f bc db 47 1b 3d cb dc c3 ba 7a 01 4d 3d
       -0.015580373 0.037910324 -0.0014943121 0.050050236
0000d0 b5 3e 0f 3d 55 0d 39 3c 66 7c 31 bc a6 1a 94 3c
       0.03497191 0.0112946825 -0.010832882 0.018079113
0000e0 2b 4b 68 bc b7 a2 ba b7 42 0b 4f 3c fa ea 1a 3d
       -0.014178078 -2.2248698e-05 0.012636961 0.037821747
0000f0 32 a1 44 3c 53 63 1c 3d fb ef 0b bd 3e 12 cb 3c
       0.012001323 0.03818066 -0.03416441 0.024788972
000100 4e 8f 90 38 5f c7 db 3c 26 6b 25 3c 36 27 30 3b
       6.893148e-05 0.026828466 0.010096347 0.002687884
000110 fa 96 48 3d c9 9b 46 3c 20 e1 93 3c 71 16 65 3d
       0.048972107 0.012122103 0.018051684 0.055929605
000120 dc 1a 5d 3c 2c 2a a0 3c 64 b6 8d bc 06 3b 13 3d
       0.013495173 0.01955136 -0.017298885 0.03594496
000130 0a fd cd bc b5 65 d0 bb 4f f7 0f 3d 7d 86 06 3d
       -0.025145072 -0.0063597807 0.03514796 0.0328431
000140 3b a2 16 bd 1b 9f 3e 3c 3a 0b 1e bb 8a 28 17 3d
       -0.03677581 0.011634613 -0.0024115578 0.036903895
000150 34 df db bc 5d 8c 00 3c ea 43 fd 3c a4 c9 79 bc
       -0.02683983 0.007845965 0.030916173 -0.015245829
000160 f9 55 c8 ba d3 7b 50 3c 3e 5e 44 bc 12 40 fe 3b
       -0.0015284411 0.0127248345 -0.01198536 0.0077591026
000170 20 b4 5c 3d b7 7d 90 bc 05 0a c1 bc 14 79 a0 3b
       0.053882718 -0.01763807 -0.023564348 0.004897246
000180 a3 99 1e 3d b1 ba 3c 3d 2a 02 1b 3c 83 5a ac bc
       0.03872074 0.04607648 0.009460965 -0.021039253
000190 5d e7 2f 3c 97 c8 3d 3c 3f 6e fd 3c f6 ab 8b bc
       0.010736314 0.011583469 0.030936358 -0.01704977
0001a0 d1 f3 5e 3c 0e 0a 93 bc cc 8a 7e bc 40 99 aa bc
       0.013607935 -0.01794913 -0.015536021 -0.020825028
0001b0 f1 dd d0 3c eb 3f 18 3d 49 f9 d1 bb dc 37 97 3c
       0.025496455 0.037170332 -0.006407891 0.018459253
0001c0 3e 2b 0d 3d 3e 39 1b 3c b7 fb 56 bc fb 51 99 bc
       0.034465067 0.009474097 -0.013121537 -0.01871585
0001d0 e8 ae ee bb 68 82 a5 3c d6 5e 30 3d cc d9 50 3c
       -0.007284034 0.020203784 0.043059193 0.012747239
0001e0 a9 4e bb 3b ab b8 ad 3c 2f 14 1c bc b3 6c 25 bc
       0.005716164 0.02120622 -0.0095262965 -0.010096717
0001f0 e3 9f a4 bc a6 d8 3f 3c 22 a4 14 3d 63 92 59 bb
       -0.020095771 0.011709368 0.03628934 -0.0033198826
000200 ae 2b 9c ba 2d b3 bf bb 1e 9d 0d 3d 54 55 11 3d
       -0.0011914873 -0.005850217 0.034573667 0.035481766
000210 e3 81 cd bc 4f e8 f0 bc 24 5d c4 3c 9c 15 d7 bc
       -0.025086349 -0.029407648 0.023970194 -0.026255421
000220 c1 90 f3 bc 61 3c bb bc 4b 09 97 bc ff 79 89 bc
       -0.02973211 -0.02285594 -0.018437048 -0.016781805
000230 c4 70 2f 3d 2c e2 01 3d 69 0d e2 3c 4c ba 89 bc
       0.04283215 0.031709835 0.027594285 -0.016812466
000240 7b 81 50 3d ba 37 f1 bb 33 3b c8 38 89 e8 c8 3b
       0.050904732 -0.0073613795 9.54777e-05 0.006131236
000250 1a 80 b8 bb 15 2a f5 3b a3 c7 43 bc 70 d2 66 3c
       -0.0056305053 0.007481823 -0.011949453 0.014088258
000260 24 8d 2f 3d 05 bd 03 bd 73 ac 29 3c 4c b4 d0 3c
       0.04285921 -0.032162685 0.0103560565 0.025476597
000270 69 c5 0d 3d af 43 96 3c b9 76 45 bb f7 ea ab 3c
       0.034612093 0.01834282 -0.0030130579 0.020986063
000280 67 e4 b4 bc 98 be 38 3d 68 90 bc bc f6 a0 a5 3b
       -0.022081567 0.04510364 -0.023018077 0.0050545884
000290 3f 9d 51 3d 7f ef dc 3c 92 62 4a 3d 3e e7 42 3c
       0.051175352 0.02696967 0.04941041 0.011895953
0002a0 74 48 5b 3c 01 8f a4 b9 c4 af 9f bc 21 af 82 3c
       0.013383973 -0.00031387064 -0.019492991 0.015952649
0002b0 45 17 71 3c 72 4e 21 bd 28 8b 03 3c 33 2d 79 bb
       0.014715021 -0.039381452 0.008028783 -0.0038021326
0002c0 9c bd 6e bb 09 fd 40 3c bf 90 bc 3c 49 9d 33 3d
       -0.0036428934 0.011779078 0.023018239 0.04385117
0002d0 2a 4a 1f 3c 2d 3a 1b 3d 37 96 33 3d b2 da 81 3c
       0.009722272 0.037897278 0.043844428 0.015851352
0002e0 73 37 79 3c 49 b7 3d 3d 98 03 b1 3c 8d 4f 07 3d
       0.015210974 0.046317372 0.021608159 0.03303485
0002f0 3b 68 dc bc dc 4f ad 3a 72 55 e0 3c 40 64 96 3c
       -0.02690517 0.0013222652 0.027384493 0.01835835
000300 3d b3 a7 3c 9b 95 54 bc 68 ad f7 3b c0 67 ef 3c
       0.02047121 -0.012975122 0.0075585134 0.029224277
000310 e9 76 17 3d 43 8e 6c 3b f1 fa 42 3c 11 02 bd 3c
       0.036978636 0.0036095537 0.011900649 0.023072274
000320 55 de 2e 3c 8d bf 43 3d f3 8f 85 bc b3 a2 6e 3c
       0.010673125 0.0477901 -0.016303992 0.014565158
000330 40 d0 83 37 55 5e e9 bc 6e 42 35 3d 79 1b e3 bc
       1.571339e-05 -0.028487364 0.044252805 -0.02772306
000340 27 ea 83 3b 78 64 16 3c 27 b4 14 3d 7e 3d b2 3c
       0.004025716 0.009179227 0.03630462 0.021757837
000350 2a 04 0b 3d 85 c4 04 3c 8a c5 e5 bc 84 00 06 bc
       0.033939518 0.0081034945 -0.028048296 -0.008178834
000360 83 45 45 3d 7c 01 50 3c e5 53 69 3b 48 f4 05 3d
       0.048161995 0.012695666 0.0035602984 0.032703668
000370 d9 63 68 3d 01 1b 3c 3c 0b df d7 3c 52 6a 05 3d
       0.056735847 0.011481048 0.026351472 0.032572098
000380 ff 77 4c bc 45 ed bd bc 7e 6f 0e 3d f6 57 e0 3c
       -0.012479781 -0.023184428 0.034774296 0.027385693
000390 43 b7 ae 3c d6 3e df 3c d6 11 76 3c 3d 78 0c 3d
       0.02132762 0.027251642 0.015018901 0.034294356
0003a0 cc 4b 10 3d a1 00 82 bc 90 8a 47 3d 63 23 11 bd
       0.035228536 -0.01586944 0.048716128 -0.035434138
0003b0 a3 29 b0 3b 1b 34 f9 3c 0e ef 84 bc 09 fd b1 bc
       0.0053760572 0.030420354 -0.016227271 -0.021727102
0003c0 5e 53 c2 3c 8a a6 98 3c 51 d7 37 3d d9 d9 97 3c
       0.023721393 0.0186341 0.044883076 0.018536495
0003d0 a0 7d a6 3c bd 4c 79 3b 21 0d bc bc 7c 30 a8 3c
       0.020323575 0.0038040124 -0.02295548 0.020530932
0003e0 cd bf 1d bd 8b 3f 4f bc fe 9e 96 3c eb 9c ad 3c
       -0.038512994 -0.012649427 0.01838636 0.021192988
0003f0 a6 af 95 bc e6 28 27 3d c3 a6 7c 3c 58 25 29 3d
       -0.018272232 0.04081049 0.0154206185 0.04129538

fc2.weight f4 [32, 256]
000000 6e 7e 93 3c 7f a1 56 3d 2d 17 0a bd 0a cb 3c bd
       0.018004622 0.05240011 -0.03371351 -0.04609207
000010 95 3d c0 3d 7c fd a1 3b cb 87 50 3d 8e 1c 4f 3c
       0.09386746 0.004943548 0.050910752 0.012641085
000020 6d ac fd bb d6 ed 09 3d c1 a8 55 bd 35 d6 37 bd
       -0.007741502 0.033674084 -0.05216289 -0.044882018
000030 a2 bc 81 3d 31 29 1a 3d c2 ac fb 3c da d6 4b 3d
       0.06334807 0.03763694 0.030722026 0.049765445
000040 f9 4a f1 3b 57 8a 1d bd 3f 23 53 bd 5e c4 a8 3b
       0.0073636738 -0.03846201 -0.051547285 0.005150362
000050 66 be ca bc 64 2c 21 3d 32 d7 1f bd ce a1 9f bb
       -0.024748992 0.039348975 -0.039023586 -0.0048715835
000060 92 16 76 3d 7a 62 38 bd d2 d7 e7 3b bf 8d 40 3d
       0.06008012 -0.04501579 0.0070752883 0.04701018
000070 5c 55 15 bc b8 bb 7d bd cf a8 50 bc b2 b0 3c 3c
       -0.00911459 -0.0619466 -0.01273556 0.011516737
000080 00 90 6c 3c 09 91 78 3d ce e8 19 bd 99 ba 22 bd
       0.014438629 0.06068519 -0.037575535 -0.039728735
000090 9a c4 29 3c 1e de 87 bd 5a 82 8e 3c 39 fa a9 3d
       0.010361815 -0.06634162 0.01739614 0.08299679
0000a0 d7 ac 7b 3d 19 2e 03 3d 91 16 3d bc 0a b4 07 bb
       0.06144413 0.032026384 -0.011541025 -0.0020706677
0000b0 33 e2 6c bd 4e 12 54 3d cb 7c 2c 3d c2 ef a6 3d
       -0.057832908 0.05177527 0.0421112 0.08151199
0000c0 93 3f 0c 3d bd 92 8f 3d 62 b8 54 3d 4c 12 69 3d
       0.034240317 0.0701041 0.051933654 0.056902215
0000d0 63 ee b9 3d b3 77 4c 3d c9 0b 13 bd bf 47 6d bc
       0.09078672 0.04991884 -0.03589991 -0.014482438
0000e0 37 68 49 3b c9 4b d8 3c 36 16 55 bd 27 b0 8a ba
       0.0030732283 0.026403325 -0.052023135 -0.0010581062
0000f0 b7 cd 2c bd e1 29 20 bd 06 b8 13 bc 81 de 3e bd
       -0.042188372 -0.03910244 -0.009016043 -0.046598915
000100 d6 72 d2 3c bb 5d 8c 3d c0 41 c8 3d 67 86 48 3d
       0.025689524 0.06853815 0.09778166 0.0489563
000110 e1 a0 4f 3d a7 64 03 bb 4b 5a 88 bd c0 2c e3 3b
       0.050690535 -0.0020049007 -0.06657847 0.006932825
000120 7d e0 f6 3b 77 0d 6a 3d c1 e3 41 bd 20 9a 2e bd
       0.0075340853 0.057141747 -0.047336344 -0.042627454
000130 ab 62 68 bd ef 51 12 3d 7f 99 ca bc 01 1a 6a 3d
       -0.056734722 0.03572267 -0.024731396 0.057153706
000140 ad 13 0b 3c 96 8a 9c 3d 74 46 a8 3d 34 d7 83 3d
       0.008488578 0.07643621 0.08216563 0.06437531
000150 59 dc 59 3c 10 50 c6 bc 4c 06 15 3d d4 de 86 3b
       0.013297164 -0.024208099 0.03638296 0.0041159187
000160 c0 87 b3 3c b2 44 80 bd bf 46 0b bd e2 1d 4c bd
       0.021915317 -0.062631026 -0.034003016 -0.049833186
000170 54 a9 2e bc cd 68 8e bb 31 b5 86 bd 84 34 ca 3b
       -0.010660488 -0.0043459893 -0.06577528 0.006170811
000180 67 fc 56 3c e3 fb b1 3c e2 3d d2 ba e3 81 2d bb
       0.013121701 0.021726554 -0.0016040171 -0.0026475124
000190 1e fd 2d bd 80 bf 06 3d e2 90 a3 3c 0e 48 1f 3d
       -0.04247772 0.032897472 0.019966546 0.038887076
0001a0 06 c3 02 3d 2b 3c a4 3b c3 29 8f 3c a4 59 cb 3b
       0.03192427 0.0050120554 0.017475968 0.0062057544
0001b0 fe 77 92 bd 4d f6 70 3c dc 1a 7d 3d b1 f7 6d bc
       -0.07151793 0.01470716 0.061793193 -0.014524386
0001c0 e1 03 9f 3c 89 fb 1d bd 7b e7 f6 3c 49 1e 3e bc
       0.01941103 -0.03856996 0.030139675 -0.0116039
0001d0 fd c5 0a 3d d5 49 24 3d df f5 56 3b 76 4a 1a bd
       0.033880223 0.040109474 0.003280036 -0.037668668
0001e0 12 36 ab 3d 1d e5 5d 3d 86 cd 9c bc 2f 24 04 3b
       0.083599225 0.054173578 -0.01914097 0.0020163169
0001f0 a2 e4 89 bd df 94 62 bd 5a 38 b2 3d cd eb 8d 3d
       -0.067330614 -0.055317756 0.087021545 0.06929741
000200 0c 77 81 ba d2 3b 0e 3c e4 84 9b bd 00 d2 3c 3c
       -0.0009877398 0.008681254 -0.07593706 0.011524677
000210 93 22 2c 3d 99 1b b8 bc 86 ef 86 bd cf bd 77 3d
       0.04202516 -0.022474097 -0.06588654 0.06048375
000220 2f 1d 30 bc d5 5a 0e bd 30 b4 c0 3c ff e4 91 3d
       -0.010749145 -0.034754593 0.02352342 0.07123756
000230 c8 29 83 3d 7a 4a 41 3d 99 9f 49 3d 19 47 d5 3c
       0.064044535 0.047190167 0.04922447 0.026034879
000240 64 f3 5b 3c bb b6 9a 3d 35 fb 3c 3d c8 ca 22 bd
       0.013424728 0.07554384 0.046138007 -0.03974417
000250 9a 4e 6a 3d 47 fd 95 bd 4c 01 22 3d b3 9d 33 3d
       0.057203867 -0.073236994 0.039552018 0.043851566
000260 82 70 3e bd f6 73 8f 3b 7a 0b 3b b9 e3 cf 85 bd
       -0.046494015 0.0043778373 -0.00017837985 -0.06533792
000270 f1 45 fe 3c cf a7 84 bd 09 8e b1 3d 9d 7f 55 bd
       0.03103921 -0.064773194 0.08669669 -0.052123655
000280 c0 95 7b 3d 9c 98 58 3d 58 55 6d bd b5 fb cd 3b
       0.06142211 0.052879915 -0.05794272 0.0062861093
000290 aa 97 35 3b 68 45 19 3b 4a fa af 3d cc 21 b7 3c
       0.0027708807 0.0023387317 0.08592661 0.022354983
0002a0 d9 d3 a7 3c 3d fb 30 bd 21 5d 16 3d 2f 46 9d 3d
       0.020486759 -0.04320835 0.03670991 0.07679402
0002b0 89 9d 1a 3c 9d 18 e1 bc e9 8b 95 3d 6a 1b 2c 3d
       0.009436973 -0.027477557 0.07302076 0.04201833
0002c0 66 48 ac b9 48 0a a2 3c e9 14 81 3c 59 21 a7 3d
       -0.00032860338 0.019780293 0.015757041 0.081606574
0002d0 cc d9 de 3a f1 d9 2b 3c 1b 14 66 bd d4 4a bd 3c
       0.0017002164 0.010488973 -0.056171518 0.02310697
0002e0 35 f1 90 3d 58 e3 81 3c 63 ec 6f bb f7 0b a0 3d
       0.070772566 0.015855476 -0.0036609403 0.07814782
0002f0 e6 e9 c2 bc a1 49 51 3c b0 6b a2 3a d3 15 5e bc
       -0.023793172 0.012773902 0.0012391713 -0.013555008
000300 90 fc 88 3d f8 4c 83 bc c3 79 a7 3d d7 13 6b 3d
       0.066887975 -0.016027912 0.08177521 0.057391968
000310 82 76 d1 3c 05 2d 8f bd 3f 62 13 bd 0a b8 97 3d
       0.025569204 -0.06991009 -0.035982367 0.074081495
000320 04 14 a3 3d 64 bf a5 3d dd 11 7c 3d 19 35 f1 3a
       0.07962802 0.080931455 0.061540473 0.0018402665
000330 30 2b 9b 3d f1 65 f1 3c 47 a4 05 3d 53 ed 4e bd
       0.07576597 0.029467555 0.03262737 -0.0505193
000340 32 e8 00 3c 42 60 65 3d ce 17 e5 3c 33 09 86 3d
       0.00786786 0.056 0.027965453 0.06544723
000350 2d fc ad bc e5 d2 ac 3d 4c 29 e9 bc da aa 45 bc
       -0.02123841 0.084386624 -0.028462075 -0.01206466
000360 41 7b f7 bb a1 3f 03 bd aa 7e 02 3c 92 f3 4e 3d
       -0.007552535 -0.032043103 0.007964769 0.050525256
000370 fa 74 bf bc 45 9f 35 3d 1e 68 d8 3b 66 15 9b 3c
       -0.023371208 0.044341344 0.0066042086 0.018931102
000380 7e 8b f0 bc 3d 3a c8 3c 67 14 bd bc 3c 9e f9 bc
       -0.02936339 0.024441833 -0.023081018 -0.03047096
000390 49 b0 b1 3c ef 60 ca 3a 12 dd 25 bd 47 ec 81 3d
       0.021690505 0.0015440265 -0.040494032 0.063438945
0003a0 7b 4e 66 3d 6e 1f 9d 3d 3f e9 81 bc 43 fd 68 bd
       0.05622719 0.0767201 -0.01585829 -0.056882154
0003b0 d4 5b 1a bd d6 5c 73 b9 71 36 da ba bc 04 6c 3d
       -0.03768523 -0.0002320887 -0.0016648305 0.057621703
0003c0 3b 50 62 bd 6c 38 e3 bc 8e 5f 6c 3d 74 f7 4f bd
       -0.055252295 -0.027736865 0.057708316 -0.0507731
0003d0 4d a4 a0 3d c5 d2 04 3d d0 95 03 bd 71 a2 8e bd
       0.07843838 0.032427568 -0.032125294 -0.06964577
0003e0 87 e8 20 bc bc 59 43 bc 65 8d 81 bd db 6f 32 3d
       -0.009821064 -0.01192325 -0.06325797 0.043563705
0003f0 44 e6 bb 3c 20 aa 0a 3a fb ce d6 bb 70 8a 6d 3d
       0.022936948 0.0005289633 -0.0065554357 0.057993352

fc2.bias f4 [32]
000000 bf c1 9b 3d cf e0 04 3d db 66 5b 3d 1c c4 2f bd
       0.076053135 0.032440957 0.053564887 -0.042911634
000010 f8 ed a1 3c 48 7d e7 bc a6 b1 e1 3b b8 17 62 37
       0.019766793 -0.028257981 0.0068876324 1.3476172e-05
000020 a4 13 99 3b f7 f1 d0 bc 80 96 96 bc 92 a2 67 bd
       0.004671531 -0.025506003 -0.01838231 -0.056551524
000030 c2 38 7d 3d 40 e0 82 bc 00 6b 24 bd a8 ac dc bc
       0.061821707 -0.015976071 -0.040141106 -0.026937798
000040 bb e2 61 bd c5 56 0a bd 53 a4 9a 3d 99 16 88 3d
       -0.055147868 -0.033774156 0.075508736 0.06644935
000050 fc 09 d7 bc ce 8a 9a 3d a0 9f 06 3d 27 e0 10 3d
       -0.026249878 0.07546006 0.032867074 0.03537002
000060 be 75 5d 3d cd 1f 04 3d 1d be 37 3d 0c f2 a4 bc
       0.054067366 0.03225689 0.04485904 -0.020134948
000070 10 d9 b6 bc fc 48 42 3d 68 54 66 bc 0a 4b bd 3c
       -0.0223203 0.047432885 -0.01405821 0.02310707

fc3.weight f4 [1, 32]
000000 36 8b 1d 3e 01 36 bf 3d e1 f9 0a bd 39 c1 0e 3e
       0.15385136 0.09336472 -0.03392971 0.13940896
000010 19 05 a3 bd 26 27 a6 bd 45 92 60 bd 59 fb e9 3d
       -0.07959957 -0.08112936 -0.054826993 0.11424894
000020 36 f2 bd bd 33 b9 39 be fd 69 c6 bd 8a a6 95 bc
       -0.09274714 -0.18137054 -0.096881844 -0.018267889
000030 48 e0 1f be 68 c9 28 be 14 4a 30 be ed 21 5a bd
       -0.156129 -0.1648308 -0.17215759 -0.05325501
000040 5f 11 26 3e e2 46 58 3d 6f 9a 2c 3e 15 6d 31 3d
       0.16217564 0.052801974 0.16855787 0.04331692
000050 86 0b ca bc 2a c8 58 3d 0f 9c 03 be ea 86 6a bd
       -0.024663698 0.052925266 -0.128525 -0.05725757
000060 d6 87 28 3e 59 00 dc bd 05 39 07 3e fb fd fc bb
       0.16458067 -0.10742254 0.13205345 -0.0077207065
000070 0c b0 ae bc f6 8a 46 3d 34 34 78 bd 4c a8 09 3e
       -0.02132418 0.048472367 -0.06059666 0.13443106
